checkpoint.pth (torch_old, 28417 bytes, 6 tensors)

fc1.weight f4 [64, 37]
000000 a3 ab 3f 3c 6f 33 3e 3d 88 22 59 3d be 0d 1b be
       0.011698636 0.04643577 0.053011447 -0.15141961
000010 e8 0e c3 bc 72 3f f7 3d 7b 24 5f 3e 91 22 2c 3e
       -0.023810819 0.12072648 0.2179126 0.16810061
000020 ce 1e 96 3c a1 4a a5 3c f2 5c 2a 3f c9 42 46 bf
       0.018325236 0.020177187 0.66548073 -0.77445656
000030 ef 7a 60 bf 97 72 72 bf 1e 84 71 c0 b7 ee 15 3e
       -0.8768758 -0.947061 -3.7736888 0.14641844
000040 c0 c4 5d 3e 5f 14 3e 3e f7 6c 64 3e a0 39 00 3e
       0.21657085 0.18562458 0.22307192 0.12521982
000050 b7 03 16 bd f7 b9 5d bd b0 68 6a 3d 8d 88 33 3e
       -0.036624637 -0.054132428 0.057228744 0.17532559
000060 88 3f 31 3e 2b bb 84 bd 6a 9e d4 3c d5 f1 82 3c
       0.17309391 -0.06481012 0.025954444 0.015984455
000070 28 97 21 3d be 4c 5a ba df 6f 67 3c d8 93 57 3e
       0.039450794 -0.00083274755 0.014125793 0.21052492
000080 ba e5 a1 3c 81 a4 3c 3e f0 ea 8d 3d 6e 4e 21 3d
       0.019762862 0.18422128 0.069295764 0.039381437
000090 a6 7c 56 3c ba 81 88 3e 7b 2d 21 bf 0d cf 3d be
       0.013091242 0.26661474 -0.6296002 -0.18536015
0000a0 a8 da c1 bc fe 88 15 bf 55 3c 89 bf 87 ac 07 bf
       -0.023663834 -0.5841216 -1.0721537 -0.5299763
0000b0 5f d4 1f be a8 e6 9c bf 4f f8 28 bf 43 c9 0c 3e
       -0.15608357 -1.2257891 -0.6600389 0.1374865
0000c0 20 59 c6 3d 5a 73 11 bf 29 4c b2 be a9 b2 ea 3c
       0.09684968 -0.5681664 -0.3482373 0.028649645
0000d0 72 85 d8 be 60 1c 8d 3e 44 fc 0f 3e 21 ad 07 be
       -0.4228931 0.2756071 0.14061075 -0.13249637
0000e0 ff d9 95 3d d2 dc 44 3e 29 ff ec be ac 74 1c bf
       0.0731697 0.19224861 -0.46288422 -0.6111553
0000f0 c1 c8 ed bd f3 78 18 be 39 ef 57 bf 84 d1 ce bc
       -0.116105564 -0.14889888 -0.843494 -0.02524639
000100 f2 b0 8d 3e 50 05 0c bf 87 be d9 be 01 0d a6 bf
       0.2767406 -0.54695606 -0.42528173 -1.2972718
000110 4e 7b 96 be e9 c1 95 3e 4a 01 a0 3e 52 6b ce be
       -0.2939095 0.29249504 0.31250983 -0.40316254
000120 e8 54 bd 3e f1 df 32 3d f9 2d aa bd 22 e4 0f bf
       0.3697884 0.0436706 -0.0830955 -0.5620748
000130 f6 82 d5 3c 8c 77 1f bf ef 41 39 bf fa c8 b8 bf
       0.026063424 -0.6229179 -0.7236623 -1.4436333
000140 e7 76 c5 be 3e 9c ca 3e bf aa 52 be bd c5 cd bf
       -0.38567278 0.39572328 -0.20572947 -1.607597
000150 41 4b b6 be cc e8 19 bd 5b e1 97 be 69 a7 3e bf
       -0.3560429 -0.037575528 -0.2966412 -0.744742
000160 9a db e7 be 3a a7 e5 be 77 b5 ac be 27 b9 a0 3e
       -0.4528473 -0.44854146 -0.33732197 0.3139126
000170 4b 42 33 bf 65 ec 34 bf 13 72 85 bf 33 3a 71 be
       -0.7002303 -0.7067321 -1.0425438 -0.23557357
000180 59 c8 87 ba 6b 06 41 bf 24 6f 2d bf e4 6d 74 be
       -0.0010359391 -0.7540042 -0.6774771 -0.23870045
000190 85 22 58 be cd 1c e1 bd 06 bf bc be 87 e4 16 bf
       -0.21106918 -0.109918214 -0.3686449 -0.58942455
0001a0 fe a6 ac bf 0d 3f fd bd 2a ed 2e 3e 32 99 0e bf
       -1.3488462 -0.123655416 0.17082658 -0.5570251
0001b0 84 75 4b bf ec 4f b2 be 39 e0 15 bd 84 1f 93 3e
       -0.7947619 -0.348266 -0.03659079 0.28734982
0001c0 da c7 94 bf 66 94 2a bf 20 bf 37 bf e1 13 25 c0
       -1.162349 -0.6663269 -0.7177601 -2.5793383
0001d0 3e 3b 69 be ef f2 60 be e4 4a e6 be 86 28 4f 3d
       -0.22776505 -0.21967672 -0.44979012 0.050575756
0001e0 8b 9b 03 bf d4 6b 59 3e 23 e4 8c be 64 00 24 be
       -0.51409215 0.2123254 -0.27517805 -0.16015774
0001f0 de 29 58 bd 69 20 91 bf 22 59 1e bf 37 8b a0 be
       -0.052774303 -1.1338016 -0.61854756 -0.31356212
000200 55 b7 8b 3e 91 eb a0 bc 0b 42 0b bf af 88 bb be
       0.2728831 -0.019643577 -0.5439765 -0.3662772
000210 1f 28 bd be 0c 88 95 3d 6e bf 5b 3d 3d 88 85 be
       -0.36944672 0.073013395 0.05364936 -0.26080504
000220 d5 cc e7 be a7 e6 e1 3d b3 19 53 be ab bd 8b be
       -0.45273462 0.110303216 -0.20615272 -0.27293143
000230 24 92 ff bd 12 f4 89 3d bb 00 49 3e 29 1f d7 be
       -0.12479046 0.06736006 0.19629185 -0.4201596
000240 07 7c e7 be c0 35 05 3e 3e d3 e5 3c 53 a6 61 bd
       -0.45211813 0.13008785 0.02805483 -0.05509026
000250 48 c6 b3 be 37 4a 56 3e 0b 8b cc 3b fc b5 46 3d
       -0.35112214 0.20926748 0.006242161 0.048513398
000260 0b c2 05 bf d4 6e b9 3d ab e2 7c 3d a1 9a 10 3e
       -0.5224921 0.09054342 0.061739605 0.14121486
000270 15 f0 b6 3e 9e 71 95 3e 25 0e b2 bb 67 69 0e 3e
       0.35730043 0.29188246 -0.005433815 0.13907395
000280 9c 09 78 bc c6 dd 43 be 9f 14 01 3e 18 7c 08 be
       -0.01513901 -0.19127569 0.12605523 -0.13328588
000290 14 43 57 3e 35 0e 14 3d fb 01 23 be f2 e7 12 be
       0.21021682 0.03614636 -0.15918724 -0.14346293
0002a0 07 a4 7e bd 9c af 82 3e 7d b6 c4 3d 14 d6 85 bd
       -0.062168147 0.25524604 0.096051194 -0.06534973
0002b0 cc c7 4c 3e a8 79 02 3f 14 75 ae 3c f2 f5 41 bf
       0.19998091 0.5096688 0.021296062 -0.7576591
0002c0 61 4f cb bf c0 ad 82 c0 e6 72 a4 3c 5f e3 c3 3e
       -1.58836 -4.0837097 0.02007432 0.38259408
0002d0 e6 59 47 3e c3 86 2e 3e c8 7d b0 3d df cf 87 bc
       0.19467887 0.17043595 0.08617741 -0.016578613
0002e0 1d 2f f6 bc 45 2f 65 bd 8f ed 5f 3d 9b 2c 5a 3d
       -0.030051762 -0.055953283 0.054669913 0.053265195
0002f0 9f cd 41 3d 9b d6 e8 bb 19 7b 71 3e 61 44 2c bf
       0.047315236 -0.007105661 0.23582114 -0.6729184
000300 88 2d 4c bf d9 70 c6 be ad 89 9e bf 86 00 64 be
       -0.79756975 -0.3875797 -1.2385765 -0.22265825
000310 fd 43 45 be 73 b8 2c 3e dc 2c b1 3d c5 c6 27 3e
       -0.19264217 0.16867237 0.08651134 0.16384418
000320 e9 6e 00 be 40 92 06 bd 36 47 84 bd 22 8d dc 3d
       -0.12542309 -0.03285432 -0.06458895 0.107691064
000330 92 39 5e be 29 b3 4f bd 83 3b fa bd 22 c6 30 3e
       -0.21701649 -0.05070797 -0.12218382 0.17263082
000340 60 65 1b 3e 44 47 bf 3e 83 fb 72 3e 4c e7 24 3d
       0.1517539 0.3735906 0.23728757 0.040259644
000350 11 bc 90 be 24 be f9 bc a5 f9 0f be 18 43 67 be
       -0.28268483 -0.030486174 -0.14060076 -0.22584188
000360 6e 51 58 3b 4c 87 b7 3d ef 34 bc 3e a4 7c 98 3d
       0.003300752 0.08961353 0.36759135 0.07445648
000370 14 e5 ef 3d 35 9a d3 3c 2d 58 25 3e 23 50 4f be
       0.11713615 0.025830368 0.16146918 -0.20245413
000380 ed 77 9b be f2 2b e9 be f6 dc 05 bf bb 48 5e bf
       -0.30364934 -0.4554134 -0.52290285 -0.8682973
000390 16 6d 0d be fc ce c1 be a9 e9 d5 be a3 4c ca 3e
       -0.13811144 -0.3785323 -0.4177983 0.39511594
0003a0 2d e1 05 bf 7c cc ef 3b 23 cd 91 3d e4 a3 0a bf
       -0.52296716 0.0073180776 0.07119205 -0.5415633
0003b0 18 23 2b bf d0 d2 c0 be d0 e3 41 be 99 d6 a9 3d
       -0.66850424 -0.37660837 -0.1893456 0.082928844
0003c0 89 e2 a0 be 17 f4 06 3d 68 42 0e bf bc c6 2e bf
       -0.31422833 0.032947626 -0.5557008 -0.68271995
0003d0 ca 70 1f 3e 45 22 12 bf b1 18 37 bf 17 8b 48 be
       0.1557037 -0.5708354 -0.7152205 -0.19584309
0003e0 24 40 b7 be 0b 31 99 be aa 6f 24 bf ce bc ca 3d
       -0.35791123 -0.2992023 -0.64232886 0.09899293
0003f0 0a 20 71 3d 8d da 18 bf c8 78 00 bf 7f d1 74 be
       0.058868445 -0.5970848 -0.501843 -0.23908041

fc1.bias f4 [64]
000000 84 a6 86 bd 71 5b cd be fa bc 0a bf 16 f1 08 bf
       -0.06574729 -0.40108827 -0.54194605 -0.5349287
000010 39 84 5e 3e 4a e1 eb bd 70 e9 c8 be 29 6b ae be
       0.21730126 -0.1151758 -0.392406 -0.34066132
000020 d7 c6 ce bc d8 bd 55 bf 64 7c bb be 63 77 ed 3c
       -0.025241299 -0.83492804 -0.3661834 0.028987592
000030 45 c3 9d be 53 10 ef be ca 21 c4 be b1 24 16 bf
       -0.3081304 -0.46692142 -0.3830703 -0.58649737
000040 3a db 8d be 97 f7 4c be 0b ce 30 be bb 0c 22 be
       -0.2770632 -0.20016323 -0.17266099 -0.15825169
000050 cb 25 85 3d 61 36 9f be db bc 2d 3e 63 97 53 be
       0.06501349 -0.31096175 0.16966574 -0.20663218
000060 0f 08 ef be 34 13 e4 bd 7a fb da be 10 90 1b bf
       -0.46685836 -0.11136475 -0.42769986 -0.60766697
000070 a0 a0 b6 be b5 77 56 be eb 91 16 bf 4e db c3 be
       -0.35669422 -0.20944102 -0.58816403 -0.38253254
000080 00 c7 8e be e8 3d c7 be 6e 10 ae be d7 5b 91 be
       -0.278862 -0.38914418 -0.3399691 -0.2839038
000090 a1 ad 0b bf be 21 db be 48 06 e7 be ef 18 de be
       -0.5456181 -0.4279918 -0.4512198 -0.43378398
0000a0 e8 76 fd bd 09 97 ea bd 67 a1 1a bf 9d 4b d9 bc
       -0.12376195 -0.11454589 -0.6040253 -0.026525313
0000b0 09 a1 06 bf 51 9d 09 bf ee 70 bd be b4 03 98 be
       -0.5258947 -0.5375567 -0.3700022 -0.29690325
0000c0 7a 4f 05 bf 86 21 b5 be 3c 46 03 bf a3 e0 af be
       -0.52074397 -0.3537714 -0.51279044 -0.34351072
0000d0 49 c9 ce be 10 f1 a7 be 48 3b 1b be 27 34 13 bf
       -0.40387943 -0.32801104 -0.15159333 -0.57501453
0000e0 0c e4 e5 bc b4 7f c9 be ca b8 09 bf 5a af 1d bf
       -0.028062843 -0.39355242 -0.5379759 -0.6159569
0000f0 7e 6f bc bc c6 01 a9 be 85 01 94 be dc 9d e1 be
       -0.023002382 -0.33009166 -0.2890741 -0.4406575

fc2.weight f4 [64, 64]
000000 88 51 87 be 94 ec 98 3d 56 d6 a9 3d 2f d0 d6 3d
       -0.2642939 0.07466999 0.082928345 0.104889266
000010 db 02 ec 3d 19 8c 12 be e6 68 b7 bd aa b9 fa bc
       0.11523982 -0.14311256 -0.08955555 -0.03060611
000020 14 ec 09 bd 16 ec aa 3c ca 5f 61 be 62 0a 20 be
       -0.033672407 0.020864528 -0.22009197 -0.1562896
000030 cb 17 22 be 9b 9d 81 bd 86 e1 9c bd 97 09 9f bc
       -0.15829389 -0.06328889 -0.07660203 -0.019413752
000040 6f 99 43 be 94 c3 0b 3b ee 75 7b 3c 84 0a c2 3c
       -0.19101499 0.002132629 0.015347941 0.023686655
000050 b8 47 1f 3c 5b ca ce bd 37 09 32 bd 53 49 05 be
       0.009721689 -0.1009719 -0.04346582 -0.13016252
000060 76 be f8 bd 8c 5c af bd 94 26 1a bc 24 0b 34 3e
       -0.121457025 -0.08562574 -0.009408612 0.17582375
000070 13 08 27 be f6 41 7a be b6 b3 02 be 06 85 95 3c
       -0.16311674 -0.24439225 -0.12763867 0.018251907
000080 7a 25 a1 bc 4f 51 d3 3c 61 82 b9 bd 65 73 32 be
       -0.01967119 0.025795607 -0.09058071 -0.17426832
000090 34 39 65 bd 31 e2 09 3d 77 28 83 bc a6 5b 0c be
       -0.055962756 0.03366298 -0.016010506 -0.13706836
0000a0 2e 72 94 bd 08 19 6e be aa f7 a1 bd ed 11 0c be
       -0.072483405 -0.23251736 -0.07908566 -0.13678713
0000b0 68 7c 0a 3d d8 02 11 be 8b 3f 30 be ab 62 d4 bd
       0.03381005 -0.14161241 -0.1721174 -0.10370382
0000c0 ae e9 8d be 23 d9 b7 bd c9 15 e9 bc 59 e8 3d be
       -0.27717346 -0.089769624 -0.02845277 -0.18545665
0000d0 c4 ef 3f be 3f d8 64 bd 98 95 4a 3d 82 76 87 b8
       -0.18743807 -0.05587029 0.04945907 -6.4593754e-05
0000e0 29 95 18 be 01 f9 8d bd 64 fe 22 be a5 51 41 3d
       -0.1490065 -0.06932259 -0.15917355 0.047197003
0000f0 55 77 4b be b4 ed 5f bd a1 5f 02 be 2c 06 9f bd
       -0.1986974 -0.05467005 -0.12731792 -0.07764849
000100 98 f3 f0 be e5 0a 6c be 12 be a7 3e d3 df f4 3e
       -0.47060847 -0.23051031 0.327622 0.47827014
000110 bf db 2f bf 61 2f d5 3d 43 80 67 be ce 9b 11 be
       -0.6869468 0.104094274 -0.22607522 -0.14219591
000120 64 82 d5 be f7 e6 73 be d6 10 8a 3e 93 00 7b be
       -0.41701043 -0.23818575 0.2696597 -0.24511938
000130 8d 27 e1 be 92 0c 69 3e ce 27 db 3d c3 b7 12 bf
       -0.43975487 0.22758701 0.107009515 -0.5731165
000140 f8 a6 f7 bd 22 e5 14 3d cc 66 df 3d 97 82 ae bd
       -0.12092394 0.03635133 0.10908279 -0.08521002
000150 40 97 9a be ed 2c 0d bf 43 3f 2d be 57 7e d6 bd
       -0.3019352 -0.55146676 -0.16918664 -0.10473316
000160 48 37 bf 3e b2 a4 33 bf 53 b9 3e bf 65 ae 26 bd
       0.37346864 -0.7017318 -0.7450153 -0.04069366
000170 d8 89 ad bd 58 79 05 3e fc cf 96 bf ce d6 d5 bd
       -0.08473557 0.1303457 -1.1782222 -0.10441361
000180 38 7d cb 3c 34 c5 c3 be f2 b0 0b bf e9 52 b1 be
       0.024839982 -0.38236392 -0.5456687 -0.34633568
000190 14 ba cc bc 56 16 3e be b1 ed 49 3d 5d 8d a1 bd
       -0.024991073 -0.18563208 0.049298946 -0.07888291
0001a0 17 19 c5 be d2 00 e7 3e 20 03 66 be be 0d 31 bf
       -0.38495705 0.45117813 -0.2246213 -0.69161594
0001b0 dd e2 c9 be 68 72 a1 be a9 af 31 be 56 01 ec be
       -0.39430895 -0.31532598 -0.17352165 -0.4609477
0001c0 0b 5a 04 be 33 d1 0e bf 47 8b 20 bf 7c a1 0b 3e
       -0.12924974 -0.5578796 -0.6271252 0.1363582
0001d0 fd 4a e6 be b1 08 86 be 81 53 1b be 74 50 0e bd
       -0.44979087 -0.26178506 -0.15168573 -0.034744695
0001e0 7a ef 8d 3e 42 06 64 bd 7e f5 6e bc 2d 8b 41 bf
       0.2772177 -0.05567003 -0.014584897 -0.7560299
0001f0 91 a9 80 bd 84 a8 6e be a8 c4 0b bf 40 62 57 be
       -0.06282342 -0.23306471 -0.5459695 -0.21033573
000200 2c b8 67 bf 3e 04 40 3e 60 04 33 bf 0e 17 f9 be
       -0.905154 0.18751618 -0.6992855 -0.48650402
000210 d1 60 38 bc da 3c 3e bd 88 85 37 be 0b 44 91 be
       -0.011253552 -0.04644475 -0.17922032 -0.28372225
000220 2d 57 e7 3e d8 5f a7 be e8 cb d6 3e 31 15 9b 3d
       0.45183697 -0.3269031 0.41952443 0.07572401
000230 a6 a0 0d bd 0f 06 54 be f0 80 12 bd f9 36 ee 3d
       -0.034577034 -0.20705436 -0.035767496 0.11631579
000240 f4 22 3d be de a5 fe bd 57 e1 82 3c 5d 85 3b bf
       -0.18470365 -0.124339804 0.015976591 -0.7325037
000250 c2 b0 d4 be c8 bd ac 3e 63 b4 22 be 3b 1d 47 3e
       -0.41541106 0.33738542 -0.15889125 0.19444744
000260 80 78 62 be 0d 40 75 be 92 7e 0a 3e 09 1f d8 3d
       -0.2211628 -0.23950215 0.13524845 0.105527945
000270 cb 3e 8d be 74 41 23 3e bf 6f 12 3a 6d 2a 74 be
       -0.2758697 0.15942937 0.00055861095 -0.23844309
000280 2a 5f dc bc 58 19 68 3e fb 2a 6e be cd 67 78 be
       -0.026900847 0.22665918 -0.23258583 -0.24258347
000290 69 a1 35 3f 52 41 5d be d8 d6 bf 3e 9b 2f be be
       0.7094942 -0.21606949 0.374686 -0.37145695
0002a0 fd d4 1c 3f 85 b3 b9 be 1f 15 5f be 3d 13 b4 3e
       0.61262494 -0.36269775 -0.21785401 0.35170928
0002b0 a8 c5 ad bd 6d 9b d8 bd 43 9e 0d 3e 82 a1 fc bd
       -0.084849656 -0.1057652 0.13829903 -0.12335493
0002c0 f1 be 8a bd e8 51 16 be 84 8b 9d 3b 3d 45 57 bd
       -0.067747004 -0.14679682 0.0048078913 -0.052556265
0002d0 bc b5 bc 3d 61 87 b2 3e cf 59 f7 3b a1 9c f0 3c
       0.092143506 0.3486891 0.007548548 0.029371561
0002e0 37 14 86 bc 61 9c aa 3e 15 cf 4b 3e 26 86 e3 bd
       -0.016367061 0.33322433 0.19903214 -0.11109571
0002f0 e5 4d 1d 3d 52 00 88 3e dc d0 06 3e aa a9 1e 3e
       0.038404364 0.26562744 0.13165611 0.15494409
000300 f2 67 c3 bd 47 e8 1d be 43 2d af 3c e2 e4 ee bd
       -0.0954131 -0.15420638 0.021383887 -0.1166475
000310 1d 00 bf bd ec 9c 73 bd 44 4c 58 bd 65 f1 c7 bd
       -0.093261935 -0.059475824 -0.052807108 -0.09762839
000320 19 69 04 be e5 5b f5 bc 1d b5 cd bd 6c fb 59 3d
       -0.12930717 -0.029951045 -0.1004431 0.05321829
000330 cf 0d 9f bd dc 7c 02 bd b1 81 97 bc 70 e8 09 be
       -0.07766306 -0.031857356 -0.018494459 -0.13467574
000340 5f 93 a3 bd d0 c9 1c bd a5 52 7e bd 19 76 0d bd
       -0.07987093 -0.0382784 -0.062090535 -0.034536455
000350 59 3b a5 bc 8d 5e b4 3c 92 21 9c bd 8a fa 43 bd
       -0.0201699 0.022017742 -0.076235905 -0.047846355
000360 ce eb 4b 3d cc 64 cc bd 06 85 bb bb bd 40 ef 3c
       0.049785428 -0.09980163 -0.0057226447 0.029205674
000370 a8 ae 74 3d b7 36 f3 bd cd 5f 8f bd b4 8f b2 bd
       0.059736878 -0.118756704 -0.070006944 -0.087188154
000380 51 ad 22 bc 2f 9e b0 bd b5 14 e8 3c 6e 23 1d 3d
       -0.009929017 -0.08623921 0.028330186 0.038363867
000390 05 81 02 be 94 4d 75 bd 57 6d 73 3d 07 a2 93 3d
       -0.1274453 -0.059888437 0.059430446 0.07208639
0003a0 fc c0 a0 bd 41 02 86 3c 22 c3 10 be 6d 08 bc bd
       -0.07849309 0.016358497 -0.14136937 -0.091812946
0003b0 a7 f9 e2 bd 43 29 98 bc 07 e5 68 bd 8d 76 6a bd
       -0.11082774 -0.018574363 -0.056859042 -0.057241965
0003c0 d4 1c 1c be 34 8d 63 bd 3b a3 3e be 76 34 2d bd
       -0.15245372 -0.055554584 -0.18616955 -0.04228636
0003d0 86 5d cf bc 57 9d 83 bc bd d9 c4 3c 0a 06 2f 3d
       -0.02531315 -0.016066236 0.024029607 0.04273037
0003e0 31 bd aa bd f2 53 41 bd 13 65 9a bd df 32 e9 bc
       -0.08336867 -0.047199197 -0.075388096 -0.02846664
0003f0 5b 39 5d be f7 43 9a bd 15 b5 27 be 1e c6 85 bd
       -0.2160391 -0.075324945 -0.16377671 -0.065319285

fc2.bias f4 [64]
000000 2b ed 78 be a2 de 0c be 29 04 1d 3e 64 55 e7 bd
       -0.24309222 -0.13756803 0.15333618 -0.11295584
000010 8b ec 97 3f fb 57 b8 be 7c f6 0d bd 0c b0 98 be
       1.1869062 -0.36004624 -0.034658894 -0.29821813
000020 e3 6a 9a 3e 42 eb 9f 3f df 97 0b be 31 56 12 3f
       0.30159673 1.249367 -0.13632153 0.5716277
000030 82 fa 64 3d 58 38 b3 bd db f1 27 3e 40 23 fa be
       0.055902965 -0.08750981 0.16400854 -0.4885502
000040 bf 5a 80 be 11 ba b1 be 10 b3 96 be c6 c4 de 3e
       -0.25069234 -0.3471227 -0.2943349 0.435095
000050 43 b7 af bd e6 0e 85 bd a6 03 dd be cd 4b 7e bc
       -0.08579876 -0.06496982 -0.43166846 -0.015521002
000060 aa e3 0a 3c 80 fc 27 bf e8 53 3a bf d9 f8 f0 be
       0.008477131 -0.6561966 -0.7278428 -0.47064856
000070 aa c2 a8 be c2 d1 b0 3d c8 ae ad be 7d 93 54 bf
       -0.32961017 0.08633758 -0.3392241 -0.8303755
000080 e1 1e 50 bd cc a3 3d 3f 71 ea b2 3d 60 36 4c bc
       -0.0508107 0.7407806 0.087361224 -0.012464136
000090 c4 0f 94 be 98 58 a8 be 90 57 49 3e 43 28 0a be
       -0.28918278 -0.32880092 0.19662309 -0.13491921
0000a0 c3 a3 85 bf 80 be c1 3f a1 99 87 bc 6c 46 b2 be
       -1.0440601 1.5136261 -0.016552748 -0.34819353
0000b0 d8 15 fa be 23 e3 d7 be 08 bd 24 bf 21 da 4d 3c
       -0.4884479 -0.4216548 -0.6435094 0.012564213
0000c0 5a 2c ab bd de 96 bb be 52 ac 09 be c9 b5 ed 3e
       -0.08358069 -0.3663854 -0.13444641 0.46427754
0000d0 0c 44 72 bd fc 00 91 3c ea d6 18 bf 18 ba a1 be
       -0.059146926 0.017700665 -0.5970293 -0.3158729
0000e0 83 02 b7 be 55 60 65 be dc 8d 99 bc d4 8b f2 be
       -0.35744104 -0.22400029 -0.018744402 -0.47372305
0000f0 1e 20 07 3e 1b 86 0a be 28 b5 8c be ad eb 40 3e
       0.13195845 -0.1352772 -0.2748196 0.18839903

fc3.weight f4 [4, 64]
000000 12 eb 1c 3e 61 fc d9 3e 1d 5f 0b 3e 6c c5 94 bb
       0.15324047 0.42575362 0.13610502 -0.004540136
000010 f2 f0 db 3e 34 07 5d be 89 c0 a1 3e 0a d6 39 3e
       0.42957264 -0.21584779 0.31592205 0.18148056
000020 d9 27 54 bd 1a 10 b7 3e f6 30 52 bd 68 cb 44 3e
       -0.051795814 0.35754472 -0.051316224 0.19218218
000030 f4 f7 0f 3e 6f 30 57 3e ea 5b 6f 3e 56 d0 9c be
       0.1405943 0.2101457 0.23374906 -0.30627698
000040 c4 6f d2 be 1b 09 fd be ca 66 01 be ad 0a 82 3d
       -0.41100895 -0.4942101 -0.12636867 0.063496925
000050 f0 91 dc 3d ce 10 35 3e db 4d 0b 3e bf b0 fb 3d
       0.10770023 0.17682192 0.13603918 0.12289571
000060 49 85 46 3e 24 29 aa be 99 e8 b7 3d 1c 91 95 3d
       0.19386782 -0.33234513 0.08979911 0.07303068
000070 26 f7 24 be 36 20 c5 be e3 97 d6 bc c1 09 85 be
       -0.16109905 -0.38501137 -0.026195472 -0.25984004
000080 1f 75 33 3e d2 ab 8c 3e f0 6e 8b 3e 3b e9 f3 bd
       0.17525147 0.27474838 0.27233076 -0.119097196
000090 f2 0b 4e 3b 58 dc 47 3e 1a 99 47 3e 71 cc fa 3d
       0.0031440225 0.19517648 0.19491997 0.12246025
0000a0 8d 26 27 be bd bb d1 3e 3b ea 2a 3e 31 c8 41 3e
       -0.163233 0.40963545 0.16690914 0.18924023
0000b0 bd 65 fc 3d 81 c3 bc bc 9b c3 83 be 6e 83 f7 3e
       0.123240925 -0.023042442 -0.25735173 0.4834246
0000c0 53 db 51 3d 17 db 1a be bc 11 a5 3e 1f 29 85 3e
       0.051234554 -0.15122639 0.32240093 0.26007935
0000d0 62 6b a5 bd d8 9c f8 be 42 eb 4c be 12 c5 09 3d
       -0.08077122 -0.48557162 -0.20011619 0.033635207
0000e0 fe be ee be 76 7c 10 b8 e5 d0 57 3d 16 39 4b be
       -0.4663009 -3.444819e-05 0.05268945 -0.19845995
0000f0 a6 3a c6 bd 83 26 0f 3e f4 d9 76 3e 00 63 05 bc
       -0.09679155 0.13979535 0.2410658 -0.008141279
000100 16 8a ce 3d 84 5d 7c 3e 49 80 d4 3d f5 f3 93 bd
       0.100849316 0.24645048 0.10376031 -0.072242655
000110 c8 55 df 3e e7 0c 36 be a5 be 8d 3e 60 66 45 3e
       0.43620133 -0.1777836 0.27684513 0.19277334
000120 49 16 72 3e 15 a6 bd 3e e3 75 e6 3d 59 e5 1a 3e
       0.23641314 0.37040773 0.11252954 0.15126552
000130 15 8d 37 3e a7 b1 9d 3e 61 02 64 3e 7d 8f b3 be
       0.17924912 0.307996 0.22266532 -0.3507041
000140 31 91 82 be f1 2e 0b bf 2f 58 c4 bd e4 14 97 3d
       -0.25501397 -0.543685 -0.09587132 0.073770314
000150 33 fe 98 3d db b7 8e 3e 18 4b c3 bc 88 50 2c 3e
       0.0747036 0.27874646 -0.023839518 0.16827595
000160 be 28 ca 3d 15 58 37 be b2 96 d2 bd 64 59 a6 be
       0.09871052 -0.17904694 -0.10282649 -0.32490075
000170 a4 0f fb be 96 41 1b 3c 72 62 d7 3e fd 86 99 be
       -0.4903537 0.009476086 0.42067295 -0.299858
000180 93 63 06 3e 0d e2 95 3e 40 fb 13 3e bb 8b 4e bd
       0.13123922 0.29274026 0.14451313 -0.050426226
000190 b2 2b 29 3c df fb 98 bd 10 3e 8b 3c 41 ee 39 3e
       0.010325359 -0.074699156 0.016997367 0.18157293
0001a0 dd 73 2b be 15 84 d8 3e 50 8b 4d 3e 1b 5e ee bd
       -0.16743417 0.4228827 0.20072675 -0.11639043
0001b0 2c 60 fc be cd 73 9a 3d 55 a6 2c be 27 06 06 3f
       -0.49292123 0.075416185 -0.16860326 0.5235314
0001c0 18 38 93 3e ab 98 99 be 32 5e 84 be 1b ee ba 3e
       0.28753734 -0.2999929 -0.25853115 0.36509785
0001d0 55 84 53 bd 5f 1b c1 3c 76 ea e4 bc ae e1 74 bd
       -0.051639874 0.023572622 -0.027943831 -0.059785537
0001e0 2d d9 3a 3d c3 60 06 bd 57 61 7e 3c ef ed 96 be
       0.04561727 -0.032807123 0.015526137 -0.29478404
0001f0 41 ed 2a be 21 e4 f4 bd 61 df 64 be 24 7a 7a 3c
       -0.16692068 -0.11957575 -0.22350837 0.01528791
000200 f0 42 07 3e 96 87 2b 3f df e8 79 3e b8 6d a3 38
       0.13209128 0.6700376 0.2440524 7.7928824e-05
000210 18 c4 d6 3e 77 f5 39 be f4 f1 f9 3d f5 37 ba 3e
       0.41946483 -0.18160044 0.12204352 0.36370817
000220 4a 7f ff 3d dd a4 ea 3e 81 cc 3d bd 2b 2f 43 3e
       0.1247545 0.45828906 -0.04633761 0.19060962
000230 94 df 08 3f 4f d2 55 3d c4 f8 2b 3e 7d ad 93 be
       0.53466153 0.05220252 0.16794115 -0.288433
000240 03 5d a7 3e 63 c0 36 bf 02 19 5c 3e 12 db 27 3e
       0.3268815 -0.7138731 0.21493915 0.16392162
000250 75 a0 34 be 4d 95 0b bd 1a 3a 0b bf f5 75 c4 3d
       -0.17639334 -0.03407793 -0.5438553 0.09592811
000260 dd a3 43 3e a3 ec 6f be c1 9e 21 be ff 44 be 3e
       0.19105478 -0.23430113 -0.15783216 0.37162015
000270 68 7f 00 bf 5d 29 39 3e f9 61 e3 3e a8 a4 ca be
       -0.50194407 0.18082185 0.44410685 -0.39578748
000280 6d 90 9e 3e 94 0b fc 3d 01 1c 0a 3e 71 55 8e 3e
       0.30969563 0.12306896 0.13487245 0.27799562
000290 07 6f 08 3d b4 d2 bd bc 06 d2 f8 bd eb 93 53 bd
       0.03330901 -0.02317176 -0.12149434 -0.051654737
0002a0 f3 30 c4 bd 9f 44 ef 3e d0 ae d7 3d cc 19 e3 be
       -0.09579649 0.4673204 0.1053139 -0.4435562
0002b0 37 31 e9 bd 05 33 fa be 71 79 b8 be 3f d2 ab 3e
       -0.1138634 -0.4886705 -0.36030152 0.33558843
0002c0 cc 5b 95 be 9e 42 75 3e d1 88 be 3d 29 5e 41 3e
       -0.29171598 0.23951194 0.093034394 0.18883575
0002d0 db d7 f8 3d ac 6e 14 be 82 07 1a bd d3 3a 62 3e
       0.12150546 -0.14495343 -0.037604816 0.22092752
0002e0 20 e9 eb bc f9 6a 6f bb 01 fc 3b 3e f2 4b 1b 3d
       -0.028797686 -0.0036532267 0.1835785 0.037914224
0002f0 7d 77 10 bf 2e 4c 85 bc ef 38 88 be d0 8f e5 be
       -0.56432325 -0.016271677 -0.26605937 -0.44836283
000300 7e dc b1 bb e2 04 09 3e 03 8b f6 bc f8 85 8a bd
       -0.005427896 0.13380769 -0.030095583 -0.06763834
000310 c9 4c a8 3e ef 87 5b 3e 4d 1b c8 be 5c 6e d0 3d
       0.32871082 0.21438573 -0.3908333 0.101772994
000320 f9 bb e7 3d ef 11 c8 3e 1a 41 73 3d 4e fa 67 3d
       0.1131515 0.39076182 0.059388258 0.056635194
000330 65 8b 27 3c b9 d9 c9 3e dd e8 8d 3e e2 d4 01 bf
       0.010226105 0.39423922 0.27716723 -0.5071546
000340 0e db 01 3f 2b d9 6f be be b6 8b 3e 2a 43 b0 3d
       0.50724876 -0.23422687 0.2728786 0.086065605
000350 f3 c9 ab 3e 78 b8 66 3e 9f d5 e6 3d 10 37 4e 3e
       0.33552513 0.22531307 0.11271214 0.20138192
000360 f6 4f ec bd d3 d0 7d be fb b8 3e be bc 27 1f 3e
       -0.11538689 -0.24786691 -0.18625252 0.15542501
000370 f6 d8 f4 be f4 24 d5 bc 9a 21 93 3e 22 c9 e0 be
       -0.47821778 -0.026018597 0.28736573 -0.43903452
000380 13 e7 ad 3e 0d 8f 3f 3e ce 6e 4f bd 4d b9 aa 3d
       0.33965358 0.18706913 -0.05064278 0.083361246
000390 62 cc 29 be ae 77 90 be 66 19 68 3d 19 e1 b6 3e
       -0.16581872 -0.28216308 0.056664847 0.3571861
0003a0 65 0e 04 be cb f1 09 3f a9 e1 04 3e 07 f5 38 be
       -0.12896116 0.5388457 0.12976708 -0.1806222
0003b0 81 dd e6 3d 39 09 55 be 8d 33 ad bd c0 e4 9d 3e
       0.11272717 -0.208043 -0.08457098 0.30838585
0003c0 24 44 c9 be 7b e2 c9 be fe e0 43 be 99 a8 cd 3e
       -0.393098 -0.39430603 -0.19128796 0.40167692
0003d0 e7 6d 0a bf 78 89 49 be 38 cc 16 3e a3 20 36 3d
       -0.5407395 -0.19681346 0.14726341 0.04446472
0003e0 78 02 12 bf 8d a4 3e be 0b c0 4e 3d 84 40 7e be
       -0.57035017 -0.18617459 0.050476115 -0.24829298
0003f0 25 17 1c be d4 ad a1 3c 40 0c db 3e 5b 42 c8 3e
       -0.15243204 0.019736208 0.42782784 0.39113125

fc3.bias f4 [4]
000000 af 0d 9a 3f cf a5 6e 3f 31 12 74 3f 68 a4 88 3f
       1.2035426 0.93221754 0.9534026 1.0675173
